…
ave_model ( \"./artifacts/model_weights\" )","title":"Training"},{"location":"Prediction/","text":"Prediction Steps Loading Model We will need the original architecture. We will need Autoconfig as we will have to provide configuration. We will need model the path of directory were we have stored weights of our fine tuned models. xlmr_fine_model = ( XLMRobertaForTokenClassification . from_pretrained ( \"./artifacts/model_weights\" , config = xlmr_config ) . to ( device )) xlmr_fine_model XLMRobertaForTokenClassification( (roberta): RobertaModel( (embeddings): RobertaEmbeddings( (word_embeddings): Embedding(250002, 768, padding_idx=1) (position_embeddings): Embedding(514, 768, padding_idx=1) (token_type_embeddings): Embedding(1, 768) (LayerNorm): LayerNorm((768,), eps=1e-05, elementwise_affine=True) (dropout): Dropout(p=0.1, inplace=False) ) (encoder): RobertaEncoder( (layer): ModuleList( (0): RobertaLayer( (attention): RobertaAttention( (self): RobertaSelfAttention( (query): Linear(in_features=768, out_features=768, bias=True) (key): Linear(in_features=768, out_features=768, bias=True) (value): Linear(in_features=768, out_features=768, bias=True) (dropout): Dropout(p=0.1, inplace=False) ) (output): RobertaSelfOutput( (dense): Linear(in_features=768, out_features=768, bias=True) (LayerNorm): LayerNorm((768,), eps=1e-05, elementwise_affine=True) (dropout): Dropout(p=0.1, inplace=False) ) ) ... ) ) (dropout): Dropout(p=0.1, inplace=False) (classifier): Linear(in_features=768, out_features=7, bias=True) ) Observer that the last two layers are the ones we have added Prediction Example 1 datapoint = panx_en_encoded [ \"train\" ][ \"input_ids\" ][ 15 ] actual_tags = panx_en_encoded [ \"train\" ][ \"ner_tags_str\" ][ 15 ] print ( datapoint ) tokenized_form = xlmr_tokenizer . convert_ids_to_tokens ( datapoint ) actual_form = xlmr_tokenizer . convert_tokens_t
…
,{"location":"Prediction/#prediction-steps","text":"","title":"Prediction Steps"},{"location":"Prediction/#loading-model","text":"We will need the original architecture. We will need Autoconfig as we will have to provide configuration. We will need model the path of directory were we have stored weights of our fine tuned models. xlmr_fine_model = ( XLMRobertaForTokenClassification . from_pretrained ( \"./artifacts/model_weights\" , config = xlmr_config ) . to ( device )) xlmr_fine_model XLMRobertaForTokenClassification( (roberta): RobertaModel( (embeddings): RobertaEmbeddings( (word_embeddings): Embedding(250002, 768, padding_idx=1) (position_embeddings): Embedding(514, 768, padding_idx=1) (token_type_embeddings): Embedding(1, 768) (LayerNorm): LayerNorm((768,), eps=1e-05, elementwise_affine=True) (dropout): Dropout(p=0.1, inplace=False) ) (encoder): RobertaEncoder( (layer): ModuleList( (0): RobertaLayer( (attention): RobertaAttention( (self): RobertaSelfAttention( (query): Linear(in_features=768, out_features=768, bias=True) (key): Linear(in_features=768, out_features=768, bias=True) (value): Linear(in_features=768, out_features=768, bias=True) (dropout): Dropout(p=0.1, inplace=False) ) (output): RobertaSelfOutput( (dense): Linear(in_features=768, out_features=768, bias=True) (LayerNorm): LayerNorm((768,), eps=1e-05, elementwise_affine=True) (dropout): Dropout(p=0.1, inplace=False) ) ) ... ) ) (dropout): Dropout(p=0.1, inplace=False) (classifier): Linear(in_features=768, out_features=7, bias=True) ) Observer that the last two layers are the ones we have added","title":"Loading Model"},{"location":"Prediction/#prediction-example-1","text":"datapoint = panx_en_encoded [ \"train\" ][ \"input_ids\" ][ 15 ] actual_tags = panx_en_encoded [ \"train\" ][ \"ner_tags_str\" ][ 15 ] print ( datapoint ) tokenized_form = xlmr_tokenizer . convert_ids_to_tokens (
…
